snake_pytorch_fina/model/model.pth (torch, 17083 bytes, 4 tensors)

linear1.weight f4 [256, 11]
00000000: cd62 d53e 5252 7cbd 76f3 45be 89e8 a2bd
00000010: 65ea 203e e2b3 083d 780e 4cbd 5255 4bbd
00000020: 2811 7d3e c8f8 47be 90f0 033e e423 e23d
00000030: 0062 e33e 0854 85be 9777 a8ba 12a9 fa3d
00000040: 1aaa 993d 2f26 593e 0af4 b53e a7f6 45be
00000050: 8d95 d0bd 2019 963e 29ad f9bd 38c1 103e
00000060: 9dcf d93e 4f2c 64be 38d4 2c3e f0e8 6d3d
00000070: 065c 7ebe c217 ae3e 23ef 743d 7064 2b3d
00000080: c206 733d ffbe babd 6666 ae3d 9555 0d3f
00000090: eb05 2ebe 32e2 18bd 9536 1cbe e2f2 77be
000000a0: 0cc8 5abd 45dd 89bd d37d 933b b894 debc
000000b0: 9a0c 90be 232a f53d 5335 93bd 1615 92be
000000c0: 42ca 7fbe c742 833e d6f8 92be 0788 83be
000000d0: 84a9 52be 0fa0 233b 3826 9d3e 44fd b8bc
000000e0: a115 83bd 1c7a 393d 3026 7c3d 28ea 5dbe
000000f0: 277d df3d de11 833e bba6 99be db8a bcbc
00000100: f488 95bd 5d1f 97be d502 b23e 90a6 6a3c
00000110: b969 64be 8c57 783e b592 293e 859a a7bd
00000120: 70f5 09be e58e 8abe 94f7 0abe bbf5 f03d
00000130: 8e0f 9cbe bec8 84be 0741 ef3c 9e6d b0be
00000140: cf00 243d 47d3 cf3d c0fa 9bbe 7aad 90be
00000150: b42d c33d ac08 523e 0124 27be f148 7bbe
00000160: 2d85 2d3e 77f6 c03e 5afc e63e a062 943d
00000170: 9a01 0c3e 0764 75be f992 973e 0fb3 4d3e
00000180: 5b3a 883e e9a0 02be ea38 bebc 31dc 9bbe
00000190: 131a cfbd c3cd 0a3f e086 393e 85a4 0abd
000001a0: 8eda c4bc 47c6 9e3e 9fdd 1bbe d45d 2e3b
000001b0: 3929 9c3d 2492 003e 180e 053d e11d e0bd
000001c0: f83a 9d3d 1088 37bc 88fe f73d b811 3dbe
000001d0: 1c0d b13d 089f 073e a2f3 1c3e 9f1b 21be
000001e0: 0b45 3abe 5511 d03e 86b8 f53d cb28 a8be
000001f0: c6c9 12bd bba8 453e 3425 26be 2961 f8bd
00000200: 9c09 c3bd 7d4b 4d3e 360b a5bd 0010 9a3e
00000210: 8aad 63be 8473 8bbc d124 f4bd b5d1 643e
00000220: 3ae4 edbd 779c 6d3e 108e 193c b09f cfbd
00000230: 8bd8 713e dbc4 09be 1bc1 a33c 84aa adba
00000240: 06a9 0e3f e659 b0bd 3dbf 88be b0bf 06bd
00000250: b7eb 7f3d 519a 6ebe c7b7 983e 2794 dcbd
00000260: 4a43 1b3e 6a08 35be f772 9ebe 3e40 fc3e
00000270: 71b3 4dbe 4dc4 2ebe 35d4 e5bd ddb2 b13c
00000280: 2950 1c3e d2ab 543e 70b7 5e3c 2c38 4d3e
00000290: 1b6e 40bc e4a1 973d 7c2b c0be a763 c33e
000002a0: 780a 9cbd 71d7 54be 8d37 483e ef2b 993d
000002b0: 2da2 b4bd 30e7 093e e2f2 8d3c 8682 a63d
000002c0: f034 9cbe 44d4 783c 04d1 bf3e 2213 273e
000002d0: a7a2 1e3d 9982 dbbd 06c5 61be c7b3 7e3e
000002e0: 7870 383e 36ac d2bd 2771 ee3c 7438 b63e
000002f0: f145 67be 512e 5ebe 6a2f 8abe 0196 8e3e
00000300: b6f0 86be 7e60 61be b487 9a3c 2e40 943e
00000310: 6d62 90be cdd9 9fbd 5ed3 67be e916 fe3e
00000320: 94a2 33be eb24 963c 5f5d 1c3e 04d3 80be
00000330: 1d6f 8bbe 1918 15be 82d4 a7bd f301 323e
00000340: 6ab1 9f3e ee24 af3e d3d6 01bf 7aba e63e
00000350: 98c0 8dbd 63b1 2b3e 0ebf 3a3e 958c e23d
00000360: 6fe8 023e 2796 d1bc ace9 183e f563 f93d
00000370: 23b3 4bbd 4e8d 113e dfba c03e 8194 29be
00000380: 7103 8ebe 8f9b 21be 1bb8 72be 2db1 843d
00000390: 4f4a 1ebe df69 96be 0666 403e 03d3 04bd
000003a0: c7f1 afbc 7c5c 293b 5ef0 a6bd 0101 6ebe
000003b0: 532d 4cbe f102 a53e 8020 883e 7184 82be
000003c0: 9a30 b13d 5c54 3cbe 2134 8d3e 0296 f1ba
000003d0: 88a0 003e 4171 77be fd47 b03d e2ad cb3c
000003e0: 59a1 cabd 0416 b63e 28d0 663e 5550 1b3d
000003f0: 8d2a bf3d f786 df3e d971 5e3e 7407 53be
0.41676942 -0.061601944 -0.19331154 -0.07954509 0.15714414 0.033374675 -0.049818486 -0.049641915
0.24713576 -0.19528496 0.12884736 0.11042002 0.44410706 -0.26040673 -0.0012853023 0.12239279
0.075031474 0.21205972 0.3553775 -0.19332372 -0.101847745 0.29316044 -0.12191231 0.14136207
0.4254121 -0.22282527 0.1687783 0.058083475 -0.24839792 0.340025 0.05979837 0.04184383
0.059332617 -0.09118461 0.08515625 0.5520871 -0.16994445 -0.03732509 -0.15255196 -0.24213746
-0.053413436 -0.06731657 0.0045010834 -0.027170524 -0.28134614 0.119709276 -0.07187905 -0.28531712
-0.24979499 0.25636885 -0.28705472 -0.25689718 -0.20572478 0.0024967229 0.3069322 -0.022581704
-0.0640061 0.04528247 0.061559856 -0.21671355 0.10912543 0.2559957 -0.30010018 -0.02301543
-0.07301512 -0.29516116 0.34767786 0.014321938 -0.22305955 0.24252146 0.1655987 -0.08183769
-0.13472533 -0.27062145 -0.13571006 0.11765619 -0.30480617 -0.25934404 0.029205812 -0.3445863
0.040039834 0.1014772 -0.30464745 -0.28257352 0.095302016 0.2051112 -0.16322328 -0.24539544
0.16945334 0.37688038 0.45114404 0.07245374 0.13672486 -0.23963939 0.2960432 0.20087837
0.26607022 -0.12756695 -0.023220498 -0.3044143 -0.10112395 0.5422022 0.18117857 -0.033848304
-0.024029996 0.3101065 -0.1522126 0.002660622 0.0762505 0.12555748 0.032484144 -0.10943199
0.07677263 -0.011201873 0.12109095 -0.1846379 0.086450785 0.1324426 0.15327314 -0.15733193
-0.181904 0.40638223 0.11998086 -0.32843623 -0.035836957 0.19302647 -0.1622513 -0.12127907
-0.09523317 0.20048328 -0.08058779 0.30090332 -0.22234169 -0.017022856 -0.11921085 0.22345622
-0.116157964 0.23204218 0.009372249 -0.1013788 0.23617761 -0.13454 0.01998954 -0.001324967
0.5572666 -0.08610897 -0.26708403 -0.03289765 0.062480655 -0.23301055 0.2982771 -0.10770445
0.15162387 -0.17678991 -0.30947086 0.49267763 -0.20087983 -0.1706707 -0.11222116 0.021691734
0.15264954 0.20768669 0.01359354 0.20040959 -0.011745001 0.07403925 -0.37533176 0.38161966
-0.07619184 -0.2078531 0.19552441 0.07479083 -0.08819995 0.13467097 0.01732773 0.08130364
-0.30509138 0.015187327 0.37464154 0.16315892 0.038729336 -0.10718269 -0.22047815 0.24873267
0.18011653 -0.10286753 0.02910669 0.35589945 -0.22585274 -0.21697356 -0.269893 0.2784882
-0.26355523 -0.22009465 0.018863536 0.28955215 -0.28200093 -0.07805214 -0.22639224 0.49626854
-0.17542487 0.01832815 0.15269993 -0.25160992 -0.2723321 -0.14559974 -0.081948295 0.17383556
0.31190044 0.34207863 -0.5071842 0.45064145 -0.069215 0.16766886 0.18236944 0.1106197
0.12783979 -0.025584294 0.14932889 0.121772684 -0.049731385 0.1421406 0.3764257 -0.16560556
-0.27737 -0.15781997 -0.23703043 0.06479106 -0.15458034 -0.29377648 0.18788919 -0.0324278
-0.021477593 0.0025842478 -0.08151315 -0.2324257 -0.19939165 0.32228807 0.26587296 -0.2549167
0.08651848 -0.18391556 0.27578834 -0.0018431547 0.12561238 -0.24164297 0.08607481 0.024863187
-0.09894056 0.35563672 0.22540343 0.037918407 0.09334288 0.43657658 0.21723117 -0.20608312

linear1.bias f4 [256]
00000000: 5e4a 313e 4fd0 143e d747 0fbe d117 593e
00000010: dc4c 00be 93dd a6be d718 13bd d45c c03d
00000020: ead8 8e3d 1a94 e33c 1462 b7be 0bfc 30be
00000030: e7ff 12be 26ba fb3d 6c1d 1bbd a9a5 323e
00000040: 2409 723e 7248 27bd d517 bdbd 7c36 223e
00000050: 3339 f4bd 9330 3cbe b1d1 60bd 9e8a 86bd
00000060: c69b 30be 935e d2bd 4a66 c73c c855 4dbd
00000070: 944f 453e e764 f0bd 82d4 bbbc a6f0 ca3c
00000080: f5e4 22be 287f 8abd c8d3 51be a8cc b8be
00000090: 8342 c1bc 062c 153e ae0e 0ebd ec71 7dbd
000000a0: 889c 39be 3927 fa3d 639a 873e f84d fd3d
000000b0: e6bf a93e 443c 76bd 32fb 1d3e 5117 73be
000000c0: 3cfb 233e e5ce 633e 1d4f 82be a4b8 74be
000000d0: 8625 e5bc 5b27 91bd c936 b63c 3169 073e
000000e0: f618 503e badf 103e b551 ee3d 408d 423d
000000f0: b0a5 773c 9a75 75bd 88ba 5e3e 889f 01bc
00000100: 9846 f93c 434a 823e 4bb1 20be c69e d4bd
00000110: d385 20be bc7d 153e ea47 42be 4427 abbc
00000120: aaa6 8a3e 33ef c83d fc1d 423d 1619 503e
00000130: d793 823d 91ba 103e 1332 2fbd 412c 793e
00000140: 153e 5d3e b9a5 403e fc2f 5f3e 48fe dc3d
00000150: f128 053c 380f ca3d 475c b53d 21b1 ae3e
00000160: 2097 06bd 298b e93d 568e 98bd a8d0 fcbd
00000170: 55aa b83d 4c28 b13e 16e4 783d f69b 37be
00000180: 1f12 503d 2f0c 8a3e d847 f3bd 1ff6 e5bc
00000190: 0480 1fbe 6c7e 90be d62b b6bd e40b 33bd
000001a0: 2902 7dbe ef3e 55bd 3b2b 95be e91e 1e3e
000001b0: a398 d1bd 81c1 d93d cdec 85bc e5e2 32bd
000001c0: e106 80be fea6 1b3e 443a 0cbe 7d1b 2b3e
000001d0: cac3 08be 818e a23d 0b60 463d e904 a13c
000001e0: 49d1 94be 8165 883d c251 813e 09db 8d3e
000001f0: 620f fd3d 7046 2dbc 4232 863e a591 f5bd
00000200: 653b 8abd eb3f 9cbd 1ad8 4bbc e919 cfbd
00000210: daee 3ebc 8605 9e3e d0e4 033e 6130 07be
00000220: ab6d d2bc 95e7 47be 4fb3 78bd db9c 31be
00000230: 32fa 113e 455e 68bd d154 68be ca6f b4bd
00000240: 84cc 8fbe 8399 873e 9b77 bb3e 2399 f2bd
00000250: de53 62be 86bc b43e ba41 b4bb 2a98 823e
00000260: 271a 6c3e a6e1 9f3e 709f 283e d245 efbd
00000270: fc53 6dbe 0dc6 19be 080b 04be 088c f03d
00000280: 2c68 af3e 95e1 95be 70da 0dbe 0407 863d
00000290: d176 5a3e 0ac0 0d3e 2421 d03d 92b4 99be
000002a0: 9b88 883d 2f58 513e ebcf f1bd a56a 103d
000002b0: b44e 3a3d 8a00 50bd 394f 893d 9e04 57bd
000002c0: 5833 f0bd 546f b13d 4686 193e eb36 e73d
000002d0: 4885 a6be fe40 833b 8a11 81be 48e6 d4bd
000002e0: c8e7 25bc 50cc 4fbd 984e 2f3e 7c09 f8bc
000002f0: 16af 04bd 8098 673e fb16 113e 89f1 d3bb
00000300: a34b 633e 036f 543e 1cdf ee3d 91d7 da3d
00000310: 840e 8b3e db44 593e 4dfa c6bd a1b6 673d
00000320: 2a38 7b3e ea08 09bd 6aec 093e 707e d2bd
00000330: d9a8 723d 2e66 86be a92c ab3e e758 6cbe
00000340: 7558 0dbe f885 92bd cda2 8abe 9e57 b1bd
00000350: ada6 863e 931e 583e 00ef cd3d d65b e9bd
00000360: 0337 aabd 0fc6 773e 7736 683d 13d2 06be
00000370: 5c16 a0bd 9ec2 193e b3d0 50be 37ae 14be
00000380: 7408 3ebd 219d 3abd 1ab5 353e df7e 85be
00000390: 2097 693d f684 573e 8f99 293e e37f 4dbe
000003a0: 297c 8ebd d18b 0dbc b765 14be 3398 393d
000003b0: c40f 6a3e ad14 62bd ae2b 8d3d 5675 0e3e
000003c0: 95e3 5bbe d9b4 13bd 4c92 823e d95d 65be
000003d0: e7a4 95be 6d8f afbe fccf 78bd e986 573d
000003e0: 798f 6d3e 8f31 dbbc 2f37 8fbd e93a 24bd
000003f0: 4166 173e 9029 cd3b 78d4 8fbd 1061 683e
0.17313525 0.14532588 -0.13992248 0.21200491 -0.1252932 -0.32590923 -0.03591236 0.093927056
0.06974967 0.027780581 -0.35817015 -0.17283647 -0.14355431 0.12291364 -0.037869856 0.17446007
0.236363 -0.040840574 -0.09233061 0.15841097 -0.119249724 -0.18377905 -0.054887477 -0.06569408
-0.17246923 -0.10271945 0.024340767 -0.050130635 0.19268638 -0.117379956 -0.02292848 0.024772953
-0.15907653 -0.067625344 -0.20490944 -0.3609364 -0.023591286 0.14567575 -0.03468197 -0.061876222
-0.18126118 0.122145124 0.26484975 0.12368387 0.3315422 -0.060116068 0.15427855 -0.23739363
0.16013807 0.22246893 -0.25450984 -0.2389856 -0.027971994 -0.070875846 0.02224292 0.13223721
0.20322022 0.14147845 0.11636678 0.047497988 0.015115187 -0.059926607 0.21750844 -0.00791157
0.03042917 0.25447282 -0.15692632 -0.10381846 -0.1567605 0.14598745 -0.18972746 -0.020892747
0.2708028 0.09811249 0.047391877 0.2032207 0.063758545 0.1413367 -0.042772364 0.24333288
0.21605714 0.18813218 0.21795648 0.10790688 0.008127437 0.09866184 0.08855491 0.34119514
-0.032858968 0.11403496 -0.074490234 -0.123444855 0.09016863 0.34601057 0.060764395 -0.17930588
0.05079853 0.2696242 -0.118789375 -0.028071461 -0.15576178 -0.28221452 -0.0889508 -0.04371251
-0.24707855 -0.05206197 -0.29134545 0.15441479 -0.10234191 0.10632611 -0.016348267 -0.043673415
-0.25005248 0.15200421 -0.13694102 0.16709705 -0.13355938 0.07937337 0.048431437 0.019655662
-0.29065922 0.06659985 0.2525769 0.27706173 0.1235645 -0.010575876 0.2621022 -0.1199067
-0.0674961 -0.07629379 -0.012441659 -0.10112364 -0.011653626 0.3086359 0.12880254 -0.13202049
-0.02568706 -0.19521935 -0.060717877 -0.17344992 0.14255598 -0.056730527 -0.22688605 -0.088103846
-0.2808572 0.26484308 0.3661469 -0.11845615 -0.22102305 0.35300082 -0.0055009993 0.25506717
0.23056851 0.31226844 0.1646707 -0.11683239 -0.23176569 -0.15016957 -0.12894833 0.11745459
0.34259164 -0.29273668 -0.13852859 0.06544307 0.21334387 0.13842788 0.10162571 -0.30020577
0.066666804 0.20443796 -0.11807235 0.035257954 0.045485213 -0.050781764 0.06704564 -0.052494638
-0.11728543 0.08663812 0.14992628 0.11289772 -0.3252356 0.0040055504 -0.25208694 -0.10395485
-0.010126062 -0.050731957 0.17119825 -0.03027796 -0.032393537 0.22616768 0.14168923 -0.006468002
0.22196822 0.20745473 0.116636485 0.10685647 0.27159512 0.21217673 -0.0971571 0.056570653
0.24533144 -0.033455767 0.13469091 -0.10278022 0.059243057 -0.26249832 0.3343251 -0.23080789
-0.13803275 -0.07154459 -0.27077332 -0.0865929 0.2629904 0.21105413 0.10055351 -0.113944694
-0.08311274 0.24196647 0.056692567 -0.13166074 -0.07816765 0.15015647 -0.20392112 -0.14519583
-0.04639478 -0.045560006 0.17744866 -0.26073357 0.05702889 0.21046814 0.16562484 -0.20068316
-0.069572754 -0.008639292 -0.14491926 0.045311164 0.22857577 -0.0551955 0.06893097 0.13911948
-0.21473534 -0.03606114 0.2550224 -0.22399081 -0.29227373 -0.34289113 -0.060745224 0.052618895
0.23199262 -0.02675703 -0.06992947 -0.040095244 0.147851 0.006261058 -0.07022947 0.22693276

linear2.weight f4 [3, 256]
00000000: 479a eebd 57d0 c5bd 34de e0bd b682 e43c
00000010: c0e0 103d a537 903c 5fa7 d3bd e6f0 233e
00000020: 3cf7 99bb c04e 0f3d 30bc 873a ab0b 45bd
00000030: 6370 fdbd 1dc6 62bd 3937 9ebc 0005 10bd
00000040: a174 973c f215 ba3d 78b3 24be 5eeb c8bd
00000050: a80d 2a3e 7909 98bd 5ec4 43be 97c1 fcbd
00000060: 15b0 28be 6a6c 28be b844 04be 94db 603b
00000070: f0c7 cf3c 3f89 a5bd 20f0 fcbd 592c 11be
00000080: ae77 16be a46b d4bd 5852 2cbd ef2d febd
00000090: 9600 bb3d 2e11 203d f097 43be f052 dbbd
000000a0: 551d 793d df41 b4bd 0b4a 82bd 3f9c f8bd
000000b0: 6e7b 993b 25e6 c03c 1cdc 87bd a287 3cbc
000000c0: 3a71 243d 2258 7a3d 1c8f e93c e2f2 1d3d
000000d0: 3848 f1bd 0c17 80bd ba01 ccbd 6a70 123e
000000e0: 3c6b 413d 91b0 69bd b457 80bd 1d7a 8dbd
000000f0: 9661 67bd 4161 23be fb36 86bd 1f2c 6ebe
00000100: 982d afbe da23 df3c 0035 04bd 4cae 53bd
00000110: a746 3a3e 930d 8d3c 379d 30be 9351 e3bd
00000120: 5aac 92bd cce8 91bd 79a4 173e ace7 f8bd
00000130: 4a4d 9bbe 2af9 373d 515f 3c3c 4d4b 12bd
00000140: 15b1 5d3d e1f7 92bd 0811 a33b af9b 51bd
00000150: 8d1b dd3b 6202 1b3d 36e8 29bc d20e 5cbc
00000160: df38 71bd a24c 053e 8993 83bd 20cc b23c
00000170: 2322 67be c0e9 943d 6d42 6abd 56ce 66be
00000180: 2e5f 72bd 96c2 a3bd fe90 19be d8ab d63d
00000190: e6c6 043d 3a02 febd 767d 0f3e 149c c3bd
000001a0: 8c67 053d 1887 debd 6e12 31bd 8666 b3bd
000001b0: ccfb eebc fa46 d5bd 7317 3cbe 6bd0 f5bd
000001c0: 40b9 0b3b db85 dd3c 82d4 aa3b bd74 013e
000001d0: 0a1a 49bd a2d1 163e b5c5 dfbd 2873 fcbd
000001e0: 7075 a7bd 3a47 acbd f4ed 72bd 862c 153e
000001f0: 3bc8 473e ace9 ff3d 5dc6 d5bd 5d89 29be
00000200: 6e26 0e3d 055e efbd e525 15be 2592 b43c
00000210: b38b 37be 65a5 14bd c401 98bd ed30 53be
00000220: ff06 67bd 4687 edbd 6aba 1bbe 9010 fc3d
00000230: 2332 86bd 47dd 98bd c82f 7cbd 6949 bb3c
00000240: 8075 a63c f131 5ebc 2733 92bc 8b31 71be
00000250: f317 20be 24ea 973d 26be 48be b7b9 d2bd
00000260: 80e1 48bd 6200 8d3d 5826 943c 9f0a 063e
00000270: 3701 2cbe 0aa4 85be 6c87 1c3e ad1c 34bd
00000280: 3ea0 5abc bc8c a5bd 3311 2e3d f984 073d
00000290: 7c85 63bd b0d3 adbd 1a5e 8ebd c6af 653d
000002a0: 75b4 38bb 4005 553c 8fbe b63d c547 083a
000002b0: 7e19 ba3d efeb 7bbc 755b 6cbe c8fb 86be
000002c0: 0bf6 093e 8088 08be d93f 023e 8ee4 0a3e
000002d0: 3674 223c e042 dabd edfe d4bd c461 573e
000002e0: dbf5 ba3d 744a 35bd 8eec 88bd 87d5 b63d
000002f0: e2b7 243d 84fa 27bd af36 493b d107 56bd
00000300: ebed cebd 3803 79bd 435e 6abd 337c 10bd
00000310: a411 7b3d c00f 083e 2424 8abd 18b7 fabd
00000320: 9409 b73d 3c8f 34bd 8573 a83d ec63 a1bc
00000330: 53b2 8bbc aaa9 0fbd ce45 343d 5848 07bd
00000340: edfe 89be cb0c 06bd 540f 3cbd d776 d0bd
00000350: 6219 c5bd 55ca 33bd 586b ab3d 5463 423d
00000360: 10c7 14be 6efd d9bb f133 b93d 790e d6bd
00000370: e6ae 83bd 5f32 a6bc 80fc 43be 654f d93c
00000380: 05ee bdbd a9f2 83bb 5e2d 003e 4f74 22bc
00000390: 72c1 0ebd f03b 53bd f6ce 67bd fcbf 5f3d
000003a0: 1d97 d4bd 030b a5bd 8a44 af3c d017 3d3e
000003b0: bfa0 3e3a 4866 e9bd 38a9 8bbd 2f82 05bc
000003c0: 93ac 92bd c360 263e 1484 193d 45a2 663e
000003d0: 5703 5f3d bc73 6b3d 907c 523d 296b 0ebe
000003e0: 7e09 2c3d e6cf 66be 225c 03ba ab55 813d
000003f0: 194d 7dbd 4ff4 d5bd 314d cebd ffc2 ba3c
-0.1165052 -0.09658878 -0.10979882 0.02789436 0.03537059 0.017604658 -0.10334658 0.16009864
-0.004698662 0.03498721 0.0010355767 -0.04810683 -0.12374952 -0.055364717 -0.019313442 -0.03516102
0.01848823 0.09086217 -0.16084087 -0.09810518 0.16606772 -0.07423682 -0.19117877 -0.12341612
-0.1647342 -0.16447607 -0.12916839 0.0034310566 0.025363892 -0.08082818 -0.12350488 -0.14177074
-0.14694092 -0.10372093 -0.042070717 -0.12411105 0.09130971 0.039078884 -0.19100928 -0.107091784
0.06081899 -0.088016264 -0.06361779 -0.121391766 0.0046839034 0.023547241 -0.066337794 -0.011506947
0.040147044 0.061119206 0.028510623 0.03856171 -0.11781353 -0.06254396 -0.09961267 0.14300695
0.047221407 -0.057053152 -0.06266728 -0.06908057 -0.05648955 -0.15955068 -0.065534554 -0.23259018
-0.34214473 0.027238775 -0.032277107 -0.051679894 0.18191014 0.017218387 -0.17247473 -0.110995434
-0.0716178 -0.071244806 0.14808835 -0.12153563 -0.30332404 0.044915356 0.011497335 -0.035716344
0.054123957 -0.071761854 0.0049763955 -0.051173862 0.006747669 0.03784407 -0.010370305 -0.013431268
-0.058892127 0.13017514 -0.064246245 0.02182585 -0.22571616 0.07271147 -0.057192255 -0.22539648
-0.0591728 -0.07996099 -0.14996716 0.10481995 0.032416247 -0.124027684 0.14012703 -0.09551254
0.032569453 -0.10865611 -0.043230467 -0.08759789 -0.0291728 -0.10413928 -0.1836832 -0.12002643
0.0021320134 0.027041366 0.005213321 0.12642188 -0.0490971 0.14728406 -0.109263815 -0.12326652
-0.08176696 -0.08412023 -0.05930896 0.14567766 0.19509976 0.12495741 -0.104382254 -0.16556306
0.03470462 -0.11687855 -0.14565237 0.022042343 -0.17924385 -0.036290545 -0.07422212 -0.20624132
-0.056403156 -0.11598067 -0.1520783 0.123078465 -0.065525316 -0.0746408 -0.061569005 0.022862153
0.0203197 -0.013561712 -0.017846657 -0.23554055 -0.15634136 0.07417706 -0.19603786 -0.102893285
-0.04904318 0.06884839 0.01808469 0.13089989 -0.16797338 -0.26101714 0.15286034 -0.04397266
-0.013343869 -0.080834836 0.04249687 0.033085797 -0.055547222 -0.08487642 -0.06951542 0.056075834
-0.0028183733 0.01300174 0.08923065 0.0005198683 0.090868935 -0.015376075 -0.23081763 -0.2636397
0.13472764 -0.1333332 0.12719668 0.13563749 0.009915402 -0.10657287 -0.10400186 0.21033388
0.091289245 -0.044260457 -0.06685744 0.08927446 0.040214427 -0.041010395 0.003070276 -0.052253548
-0.10103973 -0.060794085 -0.0572188 -0.035274696 0.06129612 0.13287258 -0.067451745 -0.122419536
0.08937374 -0.04408191 0.082251586 -0.019700967 -0.017052805 -0.035073914 0.044011883 -0.033027977
-0.26952305 -0.032727044 -0.045913056 -0.10178917 -0.09623982 -0.04389413 0.083700836 0.047458008
-0.14529061 -0.0066525256 0.0904311 -0.10451979 -0.064298436 -0.02028769 -0.1913929 0.026527116
-0.09273914 -0.00402673 0.12517306 -0.009915425 -0.034852453 -0.051570833 -0.056593858 0.05462645
-0.10380385 -0.08058741 0.021394987 0.18466115 0.0007271878 -0.11396462 -0.06819385 -0.008148714
-0.07161822 0.16247849 0.037479475 0.22522838 0.054446544 0.05748342 0.051388323 -0.13908066
0.04200124 -0.22540244 -0.0005010982 0.06315168 -0.061841104 -0.10446989 -0.10073317 0.02279806

linear2.bias f4 [3]
00000000: a2e4 abbd 857a eebd 16cb a5bd
-0.083932176 -0.116444625 -0.08095376
